chat-bot/data.pth (torch, 5015 bytes, 6 tensors)

l1.weight f4 [8, 54]
0	0x3dfc2657	0.12312
1	0xbe85fe36	-0.2617051
2	0x3f034151	0.5127154
3	0xbeb95284	-0.36195767
4	0x3e2ff4fc	0.17183298
5	0xbe8a1a03	-0.2697297
6	0x3ed28cb8	0.41122985
7	0x3e9e55ce	0.3092484
8	0x3f5687b0	0.8380079
9	0x3e9f82de	0.3115453
10	0xbdb402b1	-0.08789576
11	0x3e3de97d	0.185461
12	0x3f12f338	0.5740237
13	0x3f06a3f3	0.52593917
14	0xbdf28052	-0.118408814
15	0x3e2fddc5	0.17174442
16	0xbe3a3843	-0.18185525
17	0xbe8a270f	-0.26982924
18	0x3e977568	0.2958176
19	0xbe7a21ec	-0.24427003
20	0x3e487756	0.19576773
21	0xbe6a616d	-0.22888727
22	0xbe8aabc2	-0.27084166
23	0xbec4a609	-0.38407925
24	0x3eaf6cf3	0.3426281
25	0xbe861a6c	-0.26192033
26	0x3f0a7bef	0.5409536
27	0xbeacf095	-0.337773
28	0x3eb169a2	0.34650904
29	0xbed229b1	-0.41047433
30	0xbe80ed70	-0.2518115
31	0x3edd74d2	0.4325319
32	0x3dde999a	0.10869141
33	0x3ef3df42	0.4763127
34	0x3d227148	0.039658815
35	0x3dcf601d	0.10125754
36	0x3ec49303	0.3839341
37	0x3f3beeb1	0.7341109
38	0x3f0d4b98	0.5519347
39	0x3e96bdef	0.29441783
40	0xbe932f69	-0.2874711
41	0x3f1604a3	0.58600825
42	0x3e8b7f08	0.27245355
43	0xbc0490f8	-0.008091204
44	0x3f1cd7ab	0.61266583
45	0xbe3b4767	-0.18288957
46	0x3e13f114	0.14447433
47	0xbcc3f87e	-0.023922201
48	0x3ebc7887	0.36810705
49	0x3f37325c	0.7156122
50	0x3e019275	0.12653525
51	0x3ee7ba30	0.45259237
52	0x3ed7e792	0.42168862
53	0x3e89fad6	0.26949185
54	0xbe6b7766	-0.22994766
55	0x3eab2768	0.33428502
56	0x3ecd6d49	0.4012244
57	0x3a07d33a	0.00051813165
58	0xbd983cf9	-0.074335046
59	0x3f9228e5	1.141873
60	0x3ecff2f9	0.4061506
61	0x3ea72b4f	0.3265023
62	0x3f0603f7	0.523498
63	0x3e9c0256	0.30470532
64	0xbdf80fe1	-0.12112404
65	0x3ef27182	0.47352225
66	0x3e7f55aa	0.24935022
67	0x3f1559e0	0.58340263
68	0x3e84cded	0.2593836
69	0x3e614628	0.21999419
70	0xbe064feb	-0.13116424
71	0x3f9e4f25	1.2367903
72	0xbe94a4d7	-0.29032013
73	0xbecfadb5	-0.40562215
74	0xbe871ddd	-0.2638997
75	0xbec54fe0	-0.38537502
76	0xbec90d4b	-0.39267954
77	0x3c784fa2	0.015155705
78	0x3f0b1179	0.54323536
79	0x3cc4c61b	0.024020245
80	0xbef41e31	-0.47679284
81	0x3ec9dc4d	0.3942589
82	0xbdc0d0a0	-0.09414792
83	0x3eacdda2	0.33762842
84	0x3f5d2750	0.8638811
85	0x3ecd6020	0.401124
86	0xbde3c71e	-0.11121963
87	0x3f0217cb	0.50817555
88	0x3eae44c8	0.3403685
89	0x3ef0e804	0.47052014
90	0x3dbdff80	0.092772484
91	0x3f1c70a9	0.61109406
92	0x3ee8962a	0.45427066
93	0x3e77d145	0.24200924
94	0x3f60af7e	0.8776778
95	0xbf022720	-0.5084095
96	0x3ee0c011	0.43896535
97	0x3e80128f	0.2501416
98	0x3f000c66	0.5001892
99	0x3f096d48	0.53682375
100	0xbf0ee23b	-0.5581395
101	0xbe077965	-0.13229902
102	0xbe70c6a0	-0.2351327
103	0xbedd7906	-0.43256396
104	0x3ef50377	0.47854206
105	0xbe69bcde	-0.22825953
106	0x3ec6bc75	0.38815656
107	0x3d455de4	0.048185244
108	0x3ee4bdcb	0.4467605
109	0x3f0fbdb7	0.56148857
110	0xbe710586	-0.23537263
111	0xbcbf5b86	-0.023359071
112	0xbf125d25	-0.5717338
113	0x3d6f6f1a	0.058455564
114	0xbe880aab	-0.2657064
115	0xbed05a7c	-0.40694034
116	0x3c784420	0.015152961
117	0xbea85dac	-0.32883966
118	0xbe5e95bf	-0.21736811
119	0x3f1ca271	0.61185366
120	0x3e97c30c	0.29640996
121	0x3f2562bc	0.6460378
122	0x3ec69a60	0.38789654
123	0x3ee878e7	0.4540474
124	0xbe722149	-0.2364551
125	0x3d2dd361	0.042437915
126	0xbb8858bb	-0.004160968
127	0xbee85535	-0.45377508
128	0x3f0af348	0.5427747
129	0xbee85860	-0.45379925
130	0xbee85ad1	-0.45381787
131	0x3ea19d4c	0.3156532
132	0x3eb0157f	0.343914
133	0xbe4347e2	-0.1907039
134	0xbda7139e	-0.081580386
135	0x3e978ab6	0.29598016
136	0x3defcd38	0.11709064
137	0x3ed326e0	0.41240597
138	0x3d450737	0.048102584
139	0x3f31db36	0.69475114
140	0x3ed92107	0.4240801
141	0xbe80c2e8	-0.25148702
142	0x3ed290be	0.41126055
143	0x3f014391	0.50493723
144	0xbd07efc8	-0.033187658
145	0xbd66d2c8	-0.05635336
146	0xbda6f933	-0.08153
147	0xbe0e09d9	-0.13870944
148	0x3d8596e2	0.06522919
149	0xbd3f708e	-0.0467382
150	0x3f1cdc94	0.61274076
151	0x3e979d27	0.29612085
152	0x3f12416f	0.57131094
153	0x3ea5760b	0.32316622
154	0x3f62ce99	0.88596493
155	0x3f1e7313	0.6189434
156	0xbe781914	-0.24228317
157	0xbcf7c42e	-0.030244913
158	0x3ef76466	0.48318785
159	0x3d2f3b3f	0.04278111
160	0xbe6580c0	-0.22412395
161	0xbe4a70b8	-0.19769561
162	0x3eb33b17	0.3500602
163	0x3e02db42	0.12778953
164	0x3eeee57a	0.46659452
165	0x3e87dad1	0.2653413
166	0x3f150e8a	0.5822531
167	0xbeceae4c	-0.40367353
168	0x3ec6bb24	0.38814652
169	0x3ee19b0a	0.44063598
170	0x3edca642	0.43095595
171	0x3ede3ed6	0.43407315
172	0x3eabd4dc	0.33560836
173	0xbed85c1b	-0.4225777
174	0x3e1ba320	0.15198946
175	0xbe71f098	-0.23626935
176	0xbde65598	-0.112467945
177	0xbe39e6bd	-0.18154426
178	0x3ec7b475	0.39004865
179	0xbebda5a1	-0.37040427
180	0x3eb5d2fd	0.35512534
181	0x3eccc94d	0.3999733
182	0x3ea7d88a	0.32782394
183	0x3eee5984	0.4655267
184	0x3ec8f398	0.39248347
185	0xbdd299cf	-0.10283243
186	0x3e2f9887	0.17148028
187	0x3eb35f2a	0.35033542
188	0x3e08a6d3	0.13344888
189	0xbe231cfb	-0.15929024
190	0x3e81184f	0.25213858
191	0xbe6fec2b	-0.23429935
192	0xbea8d8f3	-0.3297802
193	0xbe5d4055	-0.21606572
194	0x3e211b87	0.15733157
195	0x3ecce425	0.4001781
196	0x3e528002	0.20556644
197	0xbeb6d106	-0.35706347
198	0x3e22d22f	0.15900491
199	0x3e6a0f3b	0.22857372
200	0x3e758c25	0.23979242
201	0x3ea9d509	0.33170345
202	0xbea7eee1	-0.32799438
203	0x3e209d48	0.15684998
204	0xbeb21416	-0.3478095
205	0xbd4ec975	-0.050485093
206	0x3e0c6905	0.13711937
207	0xbc486e35	-0.012233307
208	0x3ee0bfe8	0.43896413
209	0x3ebf034e	0.3730721
210	0x3ed0efc3	0.40807924
211	0x3e8f36ed	0.27971593
212	0xbe6e4f06	-0.23272333
213	0x3e46219b	0.19348757
214	0x3ea4aa90	0.3216138
215	0x3f0218a4	0.5081885
216	0x3eb6c891	0.35699895
217	0x3bfc4c9a	0.0076995613
218	0xbe6fc4fa	-0.23414984
219	0x3e15babe	0.14622018
220	0x3e3625c4	0.17787844
221	0xbed5678d	-0.41680565
222	0x3e5b0d6a	0.21391836
223	0xbc23331b	-0.009960915
224	0xbed313bc	-0.41225994
225	0xbd94d9e7	-0.07268124
226	0x3ea74e2b	0.32676825
227	0xbe1aded5	-0.15124066
228	0x3ed3091a	0.4121788
229	0xbdc655e2	-0.096843496
230	0x3df346b0	0.11878717
231	0xbdbb9593	-0.091593884
232	0x3e9e0c52	0.30868775
233	0xbed55c7c	-0.41672122
234	0x3ee3a07f	0.44458386
235	0x3ed3d2d0	0.41371775
236	0x3e9adb92	0.30245644
237	0x3eccb9fc	0.39985645
238	0x3f026b22	0.5094472
239	0xbc93eef9	-0.018058287
240	0xbde90550	-0.113779664
241	0xbca1654a	-0.019701619
242	0x3f1755f9	0.5911556
243	0xbdb987d5	-0.09059111
244	0x3f14fa7a	0.58194697
245	0xbebaf699	-0.36516264
246	0xbeb87326	-0.3602535
247	0xbde58f88	-0.11209017
248	0x3e731e73	0.23742084
249	0xbe5aef85	-0.21380432
250	0x3e7b3ee4	0.2453571
251	0x3d3134c4	0.04326321
252	0x3f0c913b	0.54909104
253	0xbedeb5f0	-0.43498182
254	0x3e1c7ccc	0.15281981
255	0x3dcc6096	0.0997936

l1.bias f4 [8]
0	0x3e8a1ab5	0.269735
1	0x3f4c7f0b	0.7988135
2	0x3ee85982	0.4538079
3	0x3f74f596	0.95687234
4	0x3ed55394	0.41665328
5	0x3eee43bc	0.46536052
6	0x3e2024a6	0.1563898
7	0x3e4692a1	0.19391872

l2.weight f4 [8, 8]
0	0x3f7053e8	0.9387803
1	0xbe912fe2	-0.28356844
2	0xbe7c5fa9	-0.24645866
3	0x3f24f3a7	0.64434284
4	0x3f3708ba	0.7149769
5	0x3f7c6311	0.98588663
6	0x3fa32531	1.2745725
7	0x3f55f0ec	0.8357074
8	0xbdbac146	-0.09118895
9	0xbf4cd37d	-0.80010206
10	0x3f079ff6	0.52978456
11	0x3ea3dc5e	0.32004064
12	0x3dab9cee	0.08379541
13	0x3f4c8832	0.7989532
14	0xbf1debf8	-0.61688185
15	0xbece1aef	-0.40254924
16	0xbdd00cac	-0.10158667
17	0xbe6b5cd2	-0.22984627
18	0x3e56dc06	0.2098237
19	0xbe99a822	-0.30011088
20	0x3e8f1c2d	0.27951184
21	0xbe3078b5	-0.17233546
22	0x3e4674ea	0.19380537
23	0xbe7f1681	-0.24910928
24	0x3e433f17	0.19067036
25	0xbed4523e	-0.41468996
26	0x3f3de115	0.7417157
27	0x3e92d5e6	0.28678817
28	0xbd48e651	-0.04904777
29	0x3f1c81e1	0.6113568
30	0xbf35f497	-0.7107634
31	0xbf2550f1	-0.6457663
32	0xbec9931b	-0.39370045
33	0x3f9399eb	1.1531347
34	0x3f98f480	1.1949615
35	0xbe90be37	-0.28270122
36	0xbe977947	-0.29584715
37	0x3f8d591f	1.1042823
38	0x3e1e30a2	0.1544824
39	0xbe8e99ba	-0.2785166
40	0x3debc5c6	0.11512332
41	0xbf292553	-0.6607258
42	0x3d9e2bc6	0.07723193
43	0x3f8a12dc	1.0787005
44	0x3f9a69a6	1.2063491
45	0xbb4723de	-0.0030386369
46	0xbf0e42a7	-0.55570453
47	0xbf8ab893	-1.0837578
48	0xbec38652	-0.38188416
49	0x3f9baa0e	1.2161272
50	0xbf5c0142	-0.8593942
51	0x3f614001	0.8798829
52	0xbeda8a0e	-0.42683452
53	0x3dfd992a	0.12382729
54	0xbf070c43	-0.52753085
55	0x3f420422	0.75787556
56	0x3fb91387	1.4459084
57	0xbcf4d47a	-0.029886473
58	0x3f00a18f	0.5024652
59	0x3f00628b	0.50150365
60	0x3f2a8b70	0.66619015
61	0xbe9b66df	-0.30351922
62	0xbebbe7aa	-0.36700183
63	0x3e25b929	0.16183914

l2.bias f4 [8]
0	0xbeda5dd1	-0.426497
1	0xbe41b852	-0.18917969
2	0xbe7267a6	-0.23672351
3	0xbe5153e2	-0.20442155
4	0x3e3b69f0	0.1830213
5	0x3f8fd43e	1.1236646
6	0x3f836453	1.0264992
7	0xbe9732c9	-0.29530933

l3.weight f4 [7, 8]
0	0xbf9de7ff	-1.2336425
1	0xbf816632	-1.0109313
2	0xbe5ddef0	-0.21667075
3	0x3ee137e8	0.43987966
4	0x3f40d964	0.7533171
5	0xbf56af4c	-0.8386123
6	0xbf87caa5	-1.0608717
7	0x3f5fdff1	0.8745108
8	0x3eaa8eaf	0.33311984
9	0xbef316d9	-0.4747837
10	0xbd89d140	-0.067293644
11	0xbf70221e	-0.9380206
12	0x3ed082d5	0.40724817
13	0xbfa6a3d4	-1.3018746
14	0xbe7f470a	-0.24929443
15	0xbfa93441	-1.3219072
16	0xbfd306b5	-1.6486422
17	0xbf02954e	-0.5100907
18	0x3dac88b8	0.084245145
19	0xbf988a1c	-1.1917148
20	0x3f1b5a1e	0.6068438
21	0xbead784b	-0.3388084
22	0x3f8561e5	1.04205
23	0xbfc0e81c	-1.5070834
24	0xbf3f29a3	-0.7467291
25	0xbf86c554	-1.052897
26	0x3e7c1242	0.2461634
27	0xbf93c18a	-1.1543438
28	0xbfae0119	-1.3594085
29	0x3fa1f746	1.2653587
30	0x3f5c2630	0.8599577
31	0xbdebadb9	-0.11507744
32	0x3f261eff	0.64891046
33	0xbf42ace4	-0.7604506
34	0x3e5267fa	0.20547476
35	0xbf4067a8	-0.75158167
36	0xbf981452	-1.1881201
37	0x3e8e8999	0.27839354
38	0xbfcd0757	-1.6017865
39	0x3f09b69b	0.5379426
40	0x3f0b5435	0.54425365
41	0xbf5a0159	-0.85158306
42	0xbeb0a558	-0.34501147
43	0xbf187378	-0.5955119
44	0xbf8594c5	-1.0436026
45	0xbf84054b	-1.0314115
46	0x3ed694f4	0.41910517
47	0x3ee5e3ee	0.4490046
48	0xbd9cb8b6	-0.07652418
49	0x3f84d45c	1.0377307
50	0xbe9446ae	-0.28960174
51	0x3f9206cb	1.1408323
52	0xbe3f71a6	-0.18695697
53	0x3ec22f06	0.379265
54	0xbf7d5b11	-0.9896708
55	0xbd534d16	-0.051587187

l3.bias f4 [7]
0	0xbe92a7ef	-0.28643748
1	0xbed943f8	-0.4243467
2	0x3e8cafbb	0.27477822
3	0x3f290d51	0.66035944
4	0xbe56d6ff	-0.20980452
5	0xbea9e726	-0.33184165
6	0xbebe9161	-0.3722029
